…
INFO:root:Model: "model_7"
INFO:root:__________________________________________________________________________________________________
INFO:root:Layer (type)                    Output Shape         Param #     Connected to                     
INFO:root:==================================================================================================
INFO:root:input_8 (InputLayer)            [(None, 200, 3)]     0                                            
INFO:root:__________________________________________________________________________________________________
INFO:root:max_pooling1d_60 (MaxPooling1D) (None, 200, 3)       0           input_8[0][0]                    
INFO:root:__________________________________________________________________________________________________
INFO:root:conv1d_258 (Conv1D)             (None, 200, 32)      3936        input_8[0][0]                    
INFO:root:__________________________________________________________________________________________________
INFO:root:conv1d_259 (Conv1D)             (None, 200, 32)      1920        input_8[0][0]                    
INFO:root:__________________________________________________________________________________________________
INFO:root:conv1d_260 (Conv1D)             (None, 200, 32)      960         input_8[0][0]                    
INFO:root:__________________________________________________________________________________________________
INFO:root:conv1d_261 (Conv1D)             (None, 200, 32)      96          max_pooling1d_60[0][0]           
INFO:root:__________________________________________________________________________________________________
INFO:root:concatenate_60 (Concatenate)    (None, 200, 128)     0           conv1d_258[0][0]                 
INFO:root:                                                                 conv1d_259[0][0]                 
INFO:root:                                                                 conv1d_260[0][0]                 
INFO:root:                                                                 conv1d_261[0][0]                 
INFO:root:__________________________________________________________________________________________________
INFO:root:batch_normalization_78 (BatchNo (None, 200, 128)     512         concatenate_60[0][0]             
INFO:root:__________________________________________________________________________________________________
INFO:root:activation_78 (Activation)      (None, 200, 128)     0           batch_normalization_78[0][0]     
INFO:root:__________________________________________________________________________________________________
INFO:root:max_pooling1d_61 (MaxPooling1D) (None, 200, 128)     0           activation_78[0][0]              
INFO:root:__________________________________________________________________________________________________
INFO:root:conv1d_262 (Conv1D)             (None, 200, 32)      167936      activation_78[0][0]              
INFO:root:__________________________________________________________________________________________________
INFO:root:conv1d_263 (Conv1D)             (None, 200, 32)      81920       activation_78[0][0]              
INFO:root:__________________________________________________________________________________________________
INFO:root:conv1d_264 (Conv1D)             (None, 200, 32)      40960       activation_78[0][0]              
INFO:root:__________________________________________________________________________________________________
INFO:root:conv1d_265 (Conv1D)             (None, 200, 32)      4096        max_pooling1d_61[0][0]           
INFO:root:__________________________________________________________________________________________________
INFO:root:concatenate_61 (Concatenate)    (None, 200, 128)     0           conv1d_262[0][0]                 
INFO:root:                                                                 conv1d_263[0][0]                 
INFO:root:                                                                 conv1d_264[0][0]                 
INFO:root:                                                                 conv1d_265[0][0]                 
INFO:root:__________________________________________________________________________________________________
INFO:root:batch_normalization_79 (BatchNo (None, 200, 128)     512         concatenate_61[0][0]             
INFO:root:__________________________________________________________________________________________________
INFO:root:activation_79 (Activation)      (None, 200, 128)     0           batch_normalization_79[0][0]     
INFO:root:__________________________________________________________________________________________________
INFO:root:max_pooling1d_62 (MaxPooling1D) (None, 200, 128)     0           activation_79[0][0]              
INFO:root:__________________________________________________________________________________________________
INFO:root:conv1d_266 (Conv1D)             (None, 200, 32)      167936      activation_79[0][0]              
INFO:root:__________________________________________________________________________________________________
INFO:root:conv1d_267 (Conv1D)             (None, 200, 32)      81920       activation_79[0][0]              
INFO:root:__________________________________________________________________________________________________
INFO:root:conv1d_268 (Conv1D)             (None, 200, 32)      40960       activation_79[0][0]              
INFO:root:__________________________________________________________________________________________________
INFO:root:conv1d_269 (Conv1D)             (None, 200, 32)      4096        max_pooling1d_62[0][0]           
INFO:root:__________________________________________________________________________________________________
INFO:root:concatenate_62 (Concatenate)    (None, 200, 128)     0           conv1d_266[0][0]                 
INFO:root:                                                                 conv1d_267[0][0]                 
INFO:root:                                                                 conv1d_268[0][0]                 
INFO:root:                                                                 conv1d_269[0][0]                 
INFO:root:__________________________________________________________________________________________________
INFO:root:conv1d_270 (Conv1D)             (None, 200, 128)     384         input_8[0][0]                    
INFO:root:__________________________________________________________________________________________________
INFO:root:batch_normalization_80 (BatchNo (None, 200, 128)     512         concatenate_62[0][0]             
INFO:root:__________________________________________________________________________________________________
INFO:root:batch_normalization_81 (BatchNo (None, 200, 128)     512         conv1d_270[0][0]                 
INFO:root:__________________________________________________________________________________________________
INFO:root:activation_80 (Activation)      (None, 200, 128)     0           batch_normalization_80[0][0]     
INFO:root:__________________________________________________________________________________________________
INFO:root:add_18 (Add)                    (None, 200, 128)     0           batch_normalization_81[0][0]     
INFO:root:                                                                 activation_80[0][0]              
INFO:root:__________________________________________________________________________________________________
INFO:root:activation_81 (Activation)      (None, 200, 128)     0           add_18[0][0]                     
INFO:root:__________________________________________________________________________________________________
INFO:root:max_pooling1d_63 (MaxPooling1D) (None, 200, 128)     0           activation_81[0][0]              
INFO:root:__________________________________________________________________________________________________
INFO:root:conv1d_271 (Conv1D)             (None, 200, 32)      167936      activation_81[0][0]              
INFO:root:__________________________________________________________________________________________________
INFO:root:conv1d_272 (Conv1D)             (None, 200, 32)      81920       activation_81[0][0]              
INFO:root:__________________________________________________________________________________________________
INFO:root:conv1d_273 (Conv1D)             (None, 200, 32)      40960       activation_81[0][0]              
INFO:root:__________________________________________________________________________________________________
INFO:root:conv1d_274 (Conv1D)             (None, 200, 32)      4096        max_pooling1d_63[0][0]           
INFO:root:__________________________________________________________________________________________________
INFO:root:concatenate_63 (Concatenate)    (None, 200, 128)     0           conv1d_271[0][0]                 
INFO:root:                                                                 conv1d_272[0][0]                 
INFO:root:                                                                 conv1d_273[0][0]                 
INFO:root:                                                                 conv1d_274[0][0]                 
INFO:root:__________________________________________________________________________________________________
INFO:root:batch_normalization_82 (BatchNo (None, 200, 128)     512         concatenate_63[0][0]             
INFO:root:__________________________________________________________________________________________________
INFO:root:activation_82 (Activation)      (None, 200, 128)     0           batch_normalization_82[0][0]     
INFO:root:__________________________________________________________________________________________________
INFO:root:max_pooling1d_64 (MaxPooling1D) (None, 200, 128)     0           activation_82[0][0]              
INFO:root:__________________________________________________________________________________________________
INFO:root:conv1d_275 (Conv1D)             (None, 200, 32)      167936      activation_82[0][0]              
INFO:root:__________________________________________________________________________________________________
INFO:root:conv1d_276 (Conv1D)             (None, 200, 32)      81920       activation_82[0][0]              
INFO:root:__________________________________________________________________________________________________
INFO:root:conv1d_277 (Conv1D)             (None, 200, 32)      40960       activation_82[0][0]              
INFO:root:__________________________________________________________________________________________________
INFO:root:conv1d_278 (Conv1D)             (None, 200, 32)      4096        max_pooling1d_64[0][0]           
INFO:root:__________________________________________________________________________________________________
INFO:root:concatenate_64 (Concatenate)    (None, 200, 128)     0           conv1d_275[0][0]                 
INFO:root:                                                                 conv1d_276[0][0]                 
INFO:root:                                                                 conv1d_277[0][0]                 
INFO:root:                                                                 conv1d_278[0][0]                 
INFO:root:__________________________________________________________________________________________________
INFO:root:batch_normalization_83 (BatchNo (None, 200, 128)     512         concatenate_64[0][0]             
INFO:root:__________________________________________________________________________________________________
INFO:root:activation_83 (Activation)      (None, 200, 128)     0           batch_normalization_83[0][0]     
INFO:root:__________________________________________________________________________________________________
INFO:root:max_pooling1d_65 (MaxPooling1D) (None, 200, 128)     0           activation_83[0][0]              
INFO:root:__________________________________________________________________________________________________
INFO:root:conv1d_279 (Conv1D)             (None, 200, 32)      167936      activation_83[0][0]              
INFO:root:__________________________________________________________________________________________________
INFO:root:conv1d_280 (Conv1D)             (None, 200, 32)      81920       activation_83[0][0]              
INFO:root:__________________________________________________________________________________________________
INFO:root:conv1d_281 (Conv1D)             (None, 200, 32)      40960       activation_83[0][0]              
INFO:root:__________________________________________________________________________________________________
INFO:root:conv1d_282 (Conv1D)             (None, 200, 32)      4096        max_pooling1d_65[0][0]           
INFO:root:__________________________________________________________________________________________________
INFO:root:concatenate_65 (Concatenate)    (None, 200, 128)     0           conv1d_279[0][0]                 
INFO:root:                                                                 conv1d_280[0][0]                 
INFO:root:                                                                 conv1d_281[0][0]                 
INFO:root:                                                                 conv1d_282[0][0]                 
INFO:root:__________________________________________________________________________________________________
INFO:root:conv1d_283 (Conv1D)             (None, 200, 128)     16384       activation_81[0][0]              
INFO:root:__________________________________________________________________________________________________
INFO:root:batch_normalization_84 (BatchNo (None, 200, 128)     512         concatenate_65[0][0]             
INFO:root:__________________________________________________________________________________________________
INFO:root:batch_normalization_85 (BatchNo (None, 200, 128)     512         conv1d_283[0][0]                 
INFO:root:__________________________________________________________________________________________________
INFO:root:activation_84 (Activation)      (None, 200, 128)     0           batch_normalization_84[0][0]     
INFO:root:__________________________________________________________________________________________________
INFO:root:add_19 (Add)                    (None, 200, 128)     0           batch_normalization_85[0][0]     
INFO:root:                                                                 activation_84[0][0]              
INFO:root:__________________________________________________________________________________________________
INFO:root:activation_85 (Activation)      (None, 200, 128)     0           add_19[0][0]                     
INFO:root:__________________________________________________________________________________________________
INFO:root:max_pooling1d_66 (MaxPooling1D) (None, 200, 128)     0           activation_85[0][0]              
INFO:root:__________________________________________________________________________________________________
INFO:root:conv1d_284 (Conv1D)             (None, 200, 32)      167936      activation_85[0][0]              
INFO:root:__________________________________________________________________________________________________
INFO:root:conv1d_285 (Conv1D)             (None, 200, 32)      81920       activation_85[0][0]              
INFO:root:__________________________________________________________________________________________________
INFO:root:conv1d_286 (Conv1D)             (None, 200, 32)      40960       activation_85[0][0]              
INFO:root:__________________________________________________________________________________________________
INFO:root:conv1d_287 (Conv1D)             (None, 200, 32)      4096        max_pooling1d_66[0][0]           
INFO:root:__________________________________________________________________________________________________
INFO:root:concatenate_66 (Concatenate)    (None, 200, 128)     0           conv1d_284[0][0]                 
INFO:root:                                                                 conv1d_285[0][0]                 
INFO:root:                                                                 conv1d_286[0][0]                 
INFO:root:                                                                 conv1d_287[0][0]                 
INFO:root:__________________________________________________________________________________________________
INFO:root:batch_normalization_86 (BatchNo (None, 200, 128)     512         concatenate_66[0][0]             
INFO:root:__________________________________________________________________________________________________
INFO:root:activation_86 (Activation)      (None, 200, 128)     0           batch_normalization_86[0][0]     
INFO:root:__________________________________________________________________________________________________
INFO:root:max_pooling1d_67 (MaxPooling1D) (None, 200, 128)     0           activation_86[0][0]              
INFO:root:__________________________________________________________________________________________________
INFO:root:conv1d_288 (Conv1D)             (None, 200, 32)      167936      activation_86[0][0]              
INFO:root:__________________________________________________________________________________________________
INFO:root:conv1d_289 (Conv1D)             (None, 200, 32)      81920       activation_86[0][0]              
INFO:root:__________________________________________________________________________________________________
INFO:root:conv1d_290 (Conv1D)             (None, 200, 32)      40960       activation_86[0][0]              
INFO:root:__________________________________________________________________________________________________
INFO:root:conv1d_291 (Conv1D)             (None, 200, 32)      4096        max_pooling1d_67[0][0]           
INFO:root:__________________________________________________________________________________________________
INFO:root:concatenate_67 (Concatenate)    (None, 200, 128)     0           conv1d_288[0][0]                 
INFO:root:                                                                 conv1d_289[0][0]                 
INFO:root:                                                                 conv1d_290[0][0]                 
INFO:root:                                                                 conv1d_291[0][0]                 
INFO:root:__________________________________________________________________________________________________
INFO:root:batch_normalization_87 (BatchNo (None, 200, 128)     512         concatenate_67[0][0]             
INFO:root:__________________________________________________________________________________________________
INFO:root:activation_87 (Activation)      (None, 200, 128)     0           batch_normalization_87[0][0]     
INFO:root:__________________________________________________________________________________________________
INFO:root:max_pooling1d_68 (MaxPooling1D) (None, 200, 128)     0           activation_87[0][0]              
INFO:root:__________________________________________________________________________________________________
INFO:root:conv1d_292 (Conv1D)             (None, 200, 32)      167936      activation_87[0][0]              
INFO:root:__________________________________________________________________________________________________
INFO:root:conv1d_293 (Conv1D)             (None, 200, 32)      81920       activation_87[0][0]              
INFO:root:__________________________________________________________________________________________________
INFO:root:conv1d_294 (Conv1D)             (None, 200, 32)      40960       activation_87[0][0]              
INFO:root:__________________________________________________________________________________________________
INFO:root:conv1d_295 (Conv1D)             (None, 200, 32)      4096        max_pooling1d_68[0][0]           
INFO:root:__________________________________________________________________________________________________
INFO:root:concatenate_68 (Concatenate)    (None, 200, 128)     0           conv1d_292[0][0]                 
INFO:root:                                                                 conv1d_293[0][0]                 
INFO:root:                                                                 conv1d_294[0][0]                 
INFO:root:                                                                 conv1d_295[0][0]                 
INFO:root:__________________________________________________________________________________________________
INFO:root:conv1d_296 (Conv1D)             (None, 200, 128)     16384       activation_85[0][0]              
INFO:root:__________________________________________________________________________________________________
INFO:root:batch_normalization_88 (BatchNo (None, 200, 128)     512         concatenate_68[0][0]             
INFO:root:__________________________________________________________________________________________________
INFO:root:batch_normalization_89 (BatchNo (None, 200, 128)     512         conv1d_296[0][0]                 
INFO:root:__________________________________________________________________________________________________
INFO:root:activation_88 (Activation)      (None, 200, 128)     0           batch_normalization_88[0][0]     
INFO:root:__________________________________________________________________________________________________
INFO:root:add_20 (Add)                    (None, 200, 128)     0           batch_normalization_89[0][0]     
INFO:root:                                                                 activation_88[0][0]              
INFO:root:__________________________________________________________________________________________________
INFO:root:activation_89 (Activation)      (None, 200, 128)     0           add_20[0][0]                     
INFO:root:__________________________________________________________________________________________________
INFO:root:max_pooling1d_69 (MaxPooling1D) (None, 200, 128)     0           activation_89[0][0]              
INFO:root:__________________________________________________________________________________________________
INFO:root:conv1d_297 (Conv1D)             (None, 200, 32)      167936      activation_89[0][0]              
INFO:root:__________________________________________________________________________________________________
INFO:root:conv1d_298 (Conv1D)             (None, 200, 32)      81920       activation_89[0][0]              
INFO:root:__________________________________________________________________________________________________
INFO:root:conv1d_299 (Conv1D)             (None, 200, 32)      40960       activation_89[0][0]              
INFO:root:__________________________________________________________________________________________________
INFO:root:conv1d_300 (Conv1D)             (None, 200, 32)      4096        max_pooling1d_69[0][0]           
INFO:root:__________________________________________________________________________________________________
INFO:root:concatenate_69 (Concatenate)    (None, 200, 128)     0           conv1d_297[0][0]                 
INFO:root:                                                                 conv1d_298[0][0]                 
INFO:root:                                                                 conv1d_299[0][0]                 
INFO:root:                                                                 conv1d_300[0][0]                 
INFO:root:__________________________________________________________________________________________________
INFO:root:batch_normalization_90 (BatchNo (None, 200, 128)     512         concatenate_69[0][0]             
INFO:root:__________________________________________________________________________________________________
INFO:root:activation_90 (Activation)      (None, 200, 128)     0           batch_normalization_90[0][0]     
INFO:root:__________________________________________________________________________________________________
INFO:root:max_pooling1d_70 (MaxPooling1D) (None, 200, 128)     0           activation_90[0][0]              
INFO:root:__________________________________________________________________________________________________
INFO:root:conv1d_301 (Conv1D)             (None, 200, 32)      167936      activation_90[0][0]              
INFO:root:__________________________________________________________________________________________________
INFO:root:conv1d_302 (Conv1D)             (None, 200, 32)      81920       activation_90[0][0]              
INFO:root:__________________________________________________________________________________________________
INFO:root:conv1d_303 (Conv1D)             (None, 200, 32)      40960       activation_90[0][0]              
INFO:root:__________________________________________________________________________________________________
INFO:root:conv1d_304 (Conv1D)             (None, 200, 32)      4096        max_pooling1d_70[0][0]           
INFO:root:__________________________________________________________________________________________________
INFO:root:concatenate_70 (Concatenate)    (None, 200, 128)     0           conv1d_301[0][0]                 
INFO:root:                                                                 conv1d_302[0][0]                 
INFO:root:                                                                 conv1d_303[0][0]                 
INFO:root:                                                                 conv1d_304[0][0]                 
INFO:root:__________________________________________________________________________________________________
INFO:root:batch_normalization_91 (BatchNo (None, 200, 128)     512         concatenate_70[0][0]             
INFO:root:__________________________________________________________________________________________________
INFO:root:activation_91 (Activation)      (None, 200, 128)     0           batch_normalization_91[0][0]     
INFO:root:__________________________________________________________________________________________________
INFO:root:max_pooling1d_71 (MaxPooling1D) (None, 200, 128)     0           activation_91[0][0]              
INFO:root:__________________________________________________________________________________________________
INFO:root:conv1d_305 (Conv1D)             (None, 200, 32)      167936      activation_91[0][0]              
INFO:root:__________________________________________________________________________________________________
INFO:root:conv1d_306 (Conv1D)             (None, 200, 32)      81920       activation_91[0][0]              
INFO:root:__________________________________________________________________________________________________
INFO:root:conv1d_307 (Conv1D)             (None, 200, 32)      40960       activation_91[0][0]              
INFO:root:__________________________________________________________________________________________________
INFO:root:conv1d_308 (Conv1D)             (None, 200, 32)      4096        max_pooling1d_71[0][0]           
INFO:root:__________________________________________________________________________________________________
INFO:root:concatenate_71 (Concatenate)    (None, 200, 128)     0           conv1d_305[0][0]                 
INFO:root:                                                                 conv1d_306[0][0]                 
INFO:root:                                                                 conv1d_307[0][0]                 
INFO:root:                                                                 conv1d_308[0][0]                 
INFO:root:__________________________________________________________________________________________________
INFO:root:conv1d_309 (Conv1D)             (None, 200, 128)     16384       activation_89[0][0]              
INFO:root:__________________________________________________________________________________________________
INFO:root:batch_normalization_92 (BatchNo (None, 200, 128)     512         concatenate_71[0][0]             
INFO:root:__________________________________________________________________________________________________
INFO:root:batch_normalization_93 (BatchNo (None, 200, 128)     512         conv1d_309[0][0]                 
INFO:root:__________________________________________________________________________________________________
INFO:root:activation_92 (Activation)      (None, 200, 128)     0           batch_normalization_92[0][0]     
INFO:root:__________________________________________________________________________________________________
INFO:root:add_21 (Add)                    (None, 200, 128)     0           batch_normalization_93[0][0]     
INFO:root:                                                                 activation_92[0][0]              
INFO:root:__________________________________________________________________________________________________
INFO:root:activation_93 (Activation)      (None, 200, 128)     0           add_21[0][0]                     
INFO:root:__________________________________________________________________________________________________
INFO:root:global_average_pooling1d_7 (Glo (None, 128)          0           activation_93[0][0]              
INFO:root:__________________________________________________________________________________________________
INFO:root:dense_7 (Dense)                 (None, 2)            258         global_average_pooling1d_7[0][0] 
INFO:root:==================================================================================================
INFO:root:Total params: 3,308,930
INFO:root:Trainable params: 3,304,834
INFO:root:Non-trainable params: 4,096
INFO:root:__________________________________________________________________________________________________
INFO:root:classification report:              precision    recall  f1-score   support
…
