…
INFO:root:Model: "model_4"
INFO:root:__________________________________________________________________________________________________
INFO:root:Layer (type)                    Output Shape         Param #     Connected to                     
INFO:root:==================================================================================================
INFO:root:input_5 (InputLayer)            [(None, 200, 2)]     0                                            
INFO:root:__________________________________________________________________________________________________
INFO:root:max_pooling1d_36 (MaxPooling1D) (None, 200, 2)       0           input_5[0][0]                    
INFO:root:__________________________________________________________________________________________________
INFO:root:conv1d_155 (Conv1D)             (None, 200, 32)      2624        input_5[0][0]                    
INFO:root:__________________________________________________________________________________________________
INFO:root:conv1d_156 (Conv1D)             (None, 200, 32)      1280        input_5[0][0]                    
INFO:root:__________________________________________________________________________________________________
INFO:root:conv1d_157 (Conv1D)             (None, 200, 32)      640         input_5[0][0]                    
INFO:root:__________________________________________________________________________________________________
INFO:root:conv1d_158 (Conv1D)             (None, 200, 32)      64          max_pooling1d_36[0][0]           
INFO:root:__________________________________________________________________________________________________
INFO:root:concatenate_36 (Concatenate)    (None, 200, 128)     0           conv1d_155[0][0]                 
INFO:root:                                                                 conv1d_156[0][0]                 
INFO:root:                                                                 conv1d_157[0][0]                 
INFO:root:                                                                 conv1d_158[0][0]                 
INFO:root:__________________________________________________________________________________________________
INFO:root:batch_normalization_47 (BatchNo (None, 200, 128)     512         concatenate_36[0][0]             
INFO:root:__________________________________________________________________________________________________
INFO:root:activation_47 (Activation)      (None, 200, 128)     0           batch_normalization_47[0][0]     
INFO:root:__________________________________________________________________________________________________
INFO:root:max_pooling1d_37 (MaxPooling1D) (None, 200, 128)     0           activation_47[0][0]              
INFO:root:__________________________________________________________________________________________________
INFO:root:conv1d_159 (Conv1D)             (None, 200, 32)      167936      activation_47[0][0]              
INFO:root:__________________________________________________________________________________________________
INFO:root:conv1d_160 (Conv1D)             (None, 200, 32)      81920       activation_47[0][0]              
INFO:root:__________________________________________________________________________________________________
INFO:root:conv1d_161 (Conv1D)             (None, 200, 32)      40960       activation_47[0][0]              
INFO:root:__________________________________________________________________________________________________
INFO:root:conv1d_162 (Conv1D)             (None, 200, 32)      4096        max_pooling1d_37[0][0]           
INFO:root:__________________________________________________________________________________________________
INFO:root:concatenate_37 (Concatenate)    (None, 200, 128)     0           conv1d_159[0][0]                 
INFO:root:                                                                 conv1d_160[0][0]                 
INFO:root:                                                                 conv1d_161[0][0]                 
INFO:root:                                                                 conv1d_162[0][0]                 
INFO:root:__________________________________________________________________________________________________
INFO:root:batch_normalization_48 (BatchNo (None, 200, 128)     512         concatenate_37[0][0]             
INFO:root:__________________________________________________________________________________________________
INFO:root:activation_48 (Activation)      (None, 200, 128)     0           batch_normalization_48[0][0]     
INFO:root:__________________________________________________________________________________________________
INFO:root:max_pooling1d_38 (MaxPooling1D) (None, 200, 128)     0           activation_48[0][0]              
INFO:root:__________________________________________________________________________________________________
INFO:root:conv1d_163 (Conv1D)             (None, 200, 32)      167936      activation_48[0][0]              
INFO:root:__________________________________________________________________________________________________
INFO:root:conv1d_164 (Conv1D)             (None, 200, 32)      81920       activation_48[0][0]              
INFO:root:__________________________________________________________________________________________________
INFO:root:conv1d_165 (Conv1D)             (None, 200, 32)      40960       activation_48[0][0]              
INFO:root:__________________________________________________________________________________________________
INFO:root:conv1d_166 (Conv1D)             (None, 200, 32)      4096        max_pooling1d_38[0][0]           
INFO:root:__________________________________________________________________________________________________
INFO:root:concatenate_38 (Concatenate)    (None, 200, 128)     0           conv1d_163[0][0]                 
INFO:root:                                                                 conv1d_164[0][0]                 
INFO:root:                                                                 conv1d_165[0][0]                 
INFO:root:                                                                 conv1d_166[0][0]                 
INFO:root:__________________________________________________________________________________________________
INFO:root:conv1d_167 (Conv1D)             (None, 200, 128)     256         input_5[0][0]                    
INFO:root:__________________________________________________________________________________________________
INFO:root:batch_normalization_49 (BatchNo (None, 200, 128)     512         concatenate_38[0][0]             
INFO:root:__________________________________________________________________________________________________
INFO:root:batch_normalization_50 (BatchNo (None, 200, 128)     512         conv1d_167[0][0]                 
INFO:root:__________________________________________________________________________________________________
INFO:root:activation_49 (Activation)      (None, 200, 128)     0           batch_normalization_49[0][0]     
INFO:root:__________________________________________________________________________________________________
INFO:root:add_11 (Add)                    (None, 200, 128)     0           batch_normalization_50[0][0]     
INFO:root:                                                                 activation_49[0][0]              
INFO:root:__________________________________________________________________________________________________
INFO:root:activation_50 (Activation)      (None, 200, 128)     0           add_11[0][0]                     
INFO:root:__________________________________________________________________________________________________
INFO:root:max_pooling1d_39 (MaxPooling1D) (None, 200, 128)     0           activation_50[0][0]              
INFO:root:__________________________________________________________________________________________________
INFO:root:conv1d_168 (Conv1D)             (None, 200, 32)      167936      activation_50[0][0]              
INFO:root:__________________________________________________________________________________________________
INFO:root:conv1d_169 (Conv1D)             (None, 200, 32)      81920       activation_50[0][0]              
INFO:root:__________________________________________________________________________________________________
INFO:root:conv1d_170 (Conv1D)             (None, 200, 32)      40960       activation_50[0][0]              
INFO:root:__________________________________________________________________________________________________
INFO:root:conv1d_171 (Conv1D)             (None, 200, 32)      4096        max_pooling1d_39[0][0]           
INFO:root:__________________________________________________________________________________________________
INFO:root:concatenate_39 (Concatenate)    (None, 200, 128)     0           conv1d_168[0][0]                 
INFO:root:                                                                 conv1d_169[0][0]                 
INFO:root:                                                                 conv1d_170[0][0]                 
INFO:root:                                                                 conv1d_171[0][0]                 
INFO:root:__________________________________________________________________________________________________
INFO:root:batch_normalization_51 (BatchNo (None, 200, 128)     512         concatenate_39[0][0]             
INFO:root:__________________________________________________________________________________________________
INFO:root:activation_51 (Activation)      (None, 200, 128)     0           batch_normalization_51[0][0]     
INFO:root:__________________________________________________________________________________________________
INFO:root:max_pooling1d_40 (MaxPooling1D) (None, 200, 128)     0           activation_51[0][0]              
INFO:root:__________________________________________________________________________________________________
INFO:root:conv1d_172 (Conv1D)             (None, 200, 32)      167936      activation_51[0][0]              
INFO:root:__________________________________________________________________________________________________
INFO:root:conv1d_173 (Conv1D)             (None, 200, 32)      81920       activation_51[0][0]              
INFO:root:__________________________________________________________________________________________________
INFO:root:conv1d_174 (Conv1D)             (None, 200, 32)      40960       activation_51[0][0]              
INFO:root:__________________________________________________________________________________________________
INFO:root:conv1d_175 (Conv1D)             (None, 200, 32)      4096        max_pooling1d_40[0][0]           
INFO:root:__________________________________________________________________________________________________
INFO:root:concatenate_40 (Concatenate)    (None, 200, 128)     0           conv1d_172[0][0]                 
INFO:root:                                                                 conv1d_173[0][0]                 
INFO:root:                                                                 conv1d_174[0][0]                 
INFO:root:                                                                 conv1d_175[0][0]                 
INFO:root:__________________________________________________________________________________________________
INFO:root:batch_normalization_52 (BatchNo (None, 200, 128)     512         concatenate_40[0][0]             
INFO:root:__________________________________________________________________________________________________
INFO:root:activation_52 (Activation)      (None, 200, 128)     0           batch_normalization_52[0][0]     
INFO:root:__________________________________________________________________________________________________
INFO:root:max_pooling1d_41 (MaxPooling1D) (None, 200, 128)     0           activation_52[0][0]              
INFO:root:__________________________________________________________________________________________________
INFO:root:conv1d_176 (Conv1D)             (None, 200, 32)      167936      activation_52[0][0]              
INFO:root:__________________________________________________________________________________________________
INFO:root:conv1d_177 (Conv1D)             (None, 200, 32)      81920       activation_52[0][0]              
INFO:root:__________________________________________________________________________________________________
INFO:root:conv1d_178 (Conv1D)             (None, 200, 32)      40960       activation_52[0][0]              
INFO:root:__________________________________________________________________________________________________
INFO:root:conv1d_179 (Conv1D)             (None, 200, 32)      4096        max_pooling1d_41[0][0]           
INFO:root:__________________________________________________________________________________________________
INFO:root:concatenate_41 (Concatenate)    (None, 200, 128)     0           conv1d_176[0][0]                 
INFO:root:                                                                 conv1d_177[0][0]                 
INFO:root:                                                                 conv1d_178[0][0]                 
INFO:root:                                                                 conv1d_179[0][0]                 
INFO:root:__________________________________________________________________________________________________
INFO:root:conv1d_180 (Conv1D)             (None, 200, 128)     16384       activation_50[0][0]              
INFO:root:__________________________________________________________________________________________________
INFO:root:batch_normalization_53 (BatchNo (None, 200, 128)     512         concatenate_41[0][0]             
INFO:root:__________________________________________________________________________________________________
INFO:root:batch_normalization_54 (BatchNo (None, 200, 128)     512         conv1d_180[0][0]                 
INFO:root:__________________________________________________________________________________________________
INFO:root:activation_53 (Activation)      (None, 200, 128)     0           batch_normalization_53[0][0]     
INFO:root:__________________________________________________________________________________________________
INFO:root:add_12 (Add)                    (None, 200, 128)     0           batch_normalization_54[0][0]     
INFO:root:                                                                 activation_53[0][0]              
INFO:root:__________________________________________________________________________________________________
INFO:root:activation_54 (Activation)      (None, 200, 128)     0           add_12[0][0]                     
INFO:root:__________________________________________________________________________________________________
INFO:root:global_average_pooling1d_4 (Glo (None, 128)          0           activation_54[0][0]              
INFO:root:__________________________________________________________________________________________________
INFO:root:dense_4 (Dense)                 (None, 2)            258         global_average_pooling1d_4[0][0] 
INFO:root:==================================================================================================
INFO:root:Total params: 1,500,162
INFO:root:Trainable params: 1,498,114
INFO:root:Non-trainable params: 2,048
INFO:root:__________________________________________________________________________________________________
INFO:root:classification report:              precision    recall  f1-score   support
…
