…
INFO:root:Model: "ZF_UNET_224"
INFO:root:__________________________________________________________________________________________________
INFO:root:Layer (type)                    Output Shape         Param #     Connected to                     
INFO:root:==================================================================================================
INFO:root:input_1 (InputLayer)            [(None, 1, 224, 2)]  0                                            
INFO:root:__________________________________________________________________________________________________
INFO:root:conv2d (Conv2D)                 (None, 1, 224, 32)   224         input_1[0][0]                    
INFO:root:__________________________________________________________________________________________________
INFO:root:batch_normalization (BatchNorma (None, 1, 224, 32)   128         conv2d[0][0]                     
INFO:root:__________________________________________________________________________________________________
INFO:root:activation (Activation)         (None, 1, 224, 32)   0           batch_normalization[0][0]        
INFO:root:__________________________________________________________________________________________________
INFO:root:conv2d_1 (Conv2D)               (None, 1, 224, 32)   3104        activation[0][0]                 
INFO:root:__________________________________________________________________________________________________
INFO:root:batch_normalization_1 (BatchNor (None, 1, 224, 32)   128         conv2d_1[0][0]                   
INFO:root:__________________________________________________________________________________________________
INFO:root:activation_1 (Activation)       (None, 1, 224, 32)   0           batch_normalization_1[0][0]      
INFO:root:__________________________________________________________________________________________________
INFO:root:max_pooling2d (MaxPooling2D)    (None, 1, 112, 32)   0           activation_1[0][0]               
INFO:root:__________________________________________________________________________________________________
INFO:root:conv2d_2 (Conv2D)               (None, 1, 112, 64)   6208        max_pooling2d[0][0]              
INFO:root:__________________________________________________________________________________________________
INFO:root:batch_normalization_2 (BatchNor (None, 1, 112, 64)   256         conv2d_2[0][0]                   
INFO:root:__________________________________________________________________________________________________
INFO:root:activation_2 (Activation)       (None, 1, 112, 64)   0           batch_normalization_2[0][0]      
INFO:root:__________________________________________________________________________________________________
INFO:root:conv2d_3 (Conv2D)               (None, 1, 112, 64)   12352       activation_2[0][0]               
INFO:root:__________________________________________________________________________________________________
INFO:root:batch_normalization_3 (BatchNor (None, 1, 112, 64)   256         conv2d_3[0][0]                   
INFO:root:__________________________________________________________________________________________________
INFO:root:activation_3 (Activation)       (None, 1, 112, 64)   0           batch_normalization_3[0][0]      
INFO:root:__________________________________________________________________________________________________
INFO:root:max_pooling2d_1 (MaxPooling2D)  (None, 1, 56, 64)    0           activation_3[0][0]               
INFO:root:__________________________________________________________________________________________________
INFO:root:conv2d_4 (Conv2D)               (None, 1, 56, 128)   24704       max_pooling2d_1[0][0]            
INFO:root:__________________________________________________________________________________________________
INFO:root:batch_normalization_4 (BatchNor (None, 1, 56, 128)   512         conv2d_4[0][0]                   
INFO:root:__________________________________________________________________________________________________
INFO:root:activation_4 (Activation)       (None, 1, 56, 128)   0           batch_normalization_4[0][0]      
INFO:root:__________________________________________________________________________________________________
INFO:root:conv2d_5 (Conv2D)               (None, 1, 56, 128)   49280       activation_4[0][0]               
INFO:root:__________________________________________________________________________________________________
INFO:root:batch_normalization_5 (BatchNor (None, 1, 56, 128)   512         conv2d_5[0][0]                   
INFO:root:__________________________________________________________________________________________________
INFO:root:activation_5 (Activation)       (None, 1, 56, 128)   0           batch_normalization_5[0][0]      
INFO:root:__________________________________________________________________________________________________
INFO:root:max_pooling2d_2 (MaxPooling2D)  (None, 1, 28, 128)   0           activation_5[0][0]               
INFO:root:__________________________________________________________________________________________________
INFO:root:conv2d_6 (Conv2D)               (None, 1, 28, 256)   98560       max_pooling2d_2[0][0]            
INFO:root:__________________________________________________________________________________________________
INFO:root:batch_normalization_6 (BatchNor (None, 1, 28, 256)   1024        conv2d_6[0][0]                   
INFO:root:__________________________________________________________________________________________________
INFO:root:activation_6 (Activation)       (None, 1, 28, 256)   0           batch_normalization_6[0][0]      
INFO:root:__________________________________________________________________________________________________
INFO:root:conv2d_7 (Conv2D)               (None, 1, 28, 256)   196864      activation_6[0][0]               
INFO:root:__________________________________________________________________________________________________
INFO:root:batch_normalization_7 (BatchNor (None, 1, 28, 256)   1024        conv2d_7[0][0]                   
INFO:root:__________________________________________________________________________________________________
INFO:root:activation_7 (Activation)       (None, 1, 28, 256)   0           batch_normalization_7[0][0]      
INFO:root:__________________________________________________________________________________________________
INFO:root:max_pooling2d_3 (MaxPooling2D)  (None, 1, 14, 256)   0           activation_7[0][0]               
INFO:root:__________________________________________________________________________________________________
INFO:root:conv2d_8 (Conv2D)               (None, 1, 14, 512)   393728      max_pooling2d_3[0][0]            
INFO:root:__________________________________________________________________________________________________
INFO:root:batch_normalization_8 (BatchNor (None, 1, 14, 512)   2048        conv2d_8[0][0]                   
INFO:root:__________________________________________________________________________________________________
INFO:root:activation_8 (Activation)       (None, 1, 14, 512)   0           batch_normalization_8[0][0]      
INFO:root:__________________________________________________________________________________________________
INFO:root:conv2d_9 (Conv2D)               (None, 1, 14, 512)   786944      activation_8[0][0]               
INFO:root:__________________________________________________________________________________________________
INFO:root:batch_normalization_9 (BatchNor (None, 1, 14, 512)   2048        conv2d_9[0][0]                   
INFO:root:__________________________________________________________________________________________________
INFO:root:activation_9 (Activation)       (None, 1, 14, 512)   0           batch_normalization_9[0][0]      
INFO:root:__________________________________________________________________________________________________
INFO:root:max_pooling2d_4 (MaxPooling2D)  (None, 1, 7, 512)    0           activation_9[0][0]               
INFO:root:__________________________________________________________________________________________________
INFO:root:conv2d_10 (Conv2D)              (None, 1, 7, 1024)   1573888     max_pooling2d_4[0][0]            
INFO:root:__________________________________________________________________________________________________
INFO:root:batch_normalization_10 (BatchNo (None, 1, 7, 1024)   4096        conv2d_10[0][0]                  
INFO:root:__________________________________________________________________________________________________
INFO:root:activation_10 (Activation)      (None, 1, 7, 1024)   0           batch_normalization_10[0][0]     
INFO:root:__________________________________________________________________________________________________
INFO:root:conv2d_11 (Conv2D)              (None, 1, 7, 1024)   3146752     activation_10[0][0]              
INFO:root:__________________________________________________________________________________________________
INFO:root:batch_normalization_11 (BatchNo (None, 1, 7, 1024)   4096        conv2d_11[0][0]                  
INFO:root:__________________________________________________________________________________________________
INFO:root:activation_11 (Activation)      (None, 1, 7, 1024)   0           batch_normalization_11[0][0]     
INFO:root:__________________________________________________________________________________________________
INFO:root:up_sampling2d (UpSampling2D)    (None, 1, 14, 1024)  0           activation_11[0][0]              
INFO:root:__________________________________________________________________________________________________
INFO:root:concatenate (Concatenate)       (None, 1, 14, 1536)  0           up_sampling2d[0][0]              
INFO:root:                                                                 activation_9[0][0]               
INFO:root:__________________________________________________________________________________________________
INFO:root:conv2d_12 (Conv2D)              (None, 1, 14, 512)   2359808     concatenate[0][0]                
INFO:root:__________________________________________________________________________________________________
INFO:root:batch_normalization_12 (BatchNo (None, 1, 14, 512)   2048        conv2d_12[0][0]                  
INFO:root:__________________________________________________________________________________________________
INFO:root:activation_12 (Activation)      (None, 1, 14, 512)   0           batch_normalization_12[0][0]     
INFO:root:__________________________________________________________________________________________________
INFO:root:conv2d_13 (Conv2D)              (None, 1, 14, 512)   786944      activation_12[0][0]              
INFO:root:__________________________________________________________________________________________________
INFO:root:batch_normalization_13 (BatchNo (None, 1, 14, 512)   2048        conv2d_13[0][0]                  
INFO:root:__________________________________________________________________________________________________
INFO:root:activation_13 (Activation)      (None, 1, 14, 512)   0           batch_normalization_13[0][0]     
INFO:root:__________________________________________________________________________________________________
INFO:root:up_sampling2d_1 (UpSampling2D)  (None, 1, 28, 512)   0           activation_13[0][0]              
INFO:root:__________________________________________________________________________________________________
INFO:root:concatenate_1 (Concatenate)     (None, 1, 28, 768)   0           up_sampling2d_1[0][0]            
INFO:root:                                                                 activation_7[0][0]               
INFO:root:__________________________________________________________________________________________________
INFO:root:conv2d_14 (Conv2D)              (None, 1, 28, 256)   590080      concatenate_1[0][0]              
INFO:root:__________________________________________________________________________________________________
INFO:root:batch_normalization_14 (BatchNo (None, 1, 28, 256)   1024        conv2d_14[0][0]                  
INFO:root:__________________________________________________________________________________________________
INFO:root:activation_14 (Activation)      (None, 1, 28, 256)   0           batch_normalization_14[0][0]     
INFO:root:__________________________________________________________________________________________________
INFO:root:conv2d_15 (Conv2D)              (None, 1, 28, 256)   196864      activation_14[0][0]              
INFO:root:__________________________________________________________________________________________________
INFO:root:batch_normalization_15 (BatchNo (None, 1, 28, 256)   1024        conv2d_15[0][0]                  
INFO:root:__________________________________________________________________________________________________
INFO:root:activation_15 (Activation)      (None, 1, 28, 256)   0           batch_normalization_15[0][0]     
INFO:root:__________________________________________________________________________________________________
INFO:root:up_sampling2d_2 (UpSampling2D)  (None, 1, 56, 256)   0           activation_15[0][0]              
INFO:root:__________________________________________________________________________________________________
INFO:root:concatenate_2 (Concatenate)     (None, 1, 56, 384)   0           up_sampling2d_2[0][0]            
INFO:root:                                                                 activation_5[0][0]               
INFO:root:__________________________________________________________________________________________________
INFO:root:conv2d_16 (Conv2D)              (None, 1, 56, 128)   147584      concatenate_2[0][0]              
INFO:root:__________________________________________________________________________________________________
INFO:root:batch_normalization_16 (BatchNo (None, 1, 56, 128)   512         conv2d_16[0][0]                  
INFO:root:__________________________________________________________________________________________________
INFO:root:activation_16 (Activation)      (None, 1, 56, 128)   0           batch_normalization_16[0][0]     
INFO:root:__________________________________________________________________________________________________
INFO:root:conv2d_17 (Conv2D)              (None, 1, 56, 128)   49280       activation_16[0][0]              
INFO:root:__________________________________________________________________________________________________
INFO:root:batch_normalization_17 (BatchNo (None, 1, 56, 128)   512         conv2d_17[0][0]                  
INFO:root:__________________________________________________________________________________________________
INFO:root:activation_17 (Activation)      (None, 1, 56, 128)   0           batch_normalization_17[0][0]     
INFO:root:__________________________________________________________________________________________________
INFO:root:up_sampling2d_3 (UpSampling2D)  (None, 1, 112, 128)  0           activation_17[0][0]              
INFO:root:__________________________________________________________________________________________________
INFO:root:concatenate_3 (Concatenate)     (None, 1, 112, 192)  0           up_sampling2d_3[0][0]            
INFO:root:                                                                 activation_3[0][0]               
INFO:root:__________________________________________________________________________________________________
INFO:root:conv2d_18 (Conv2D)              (None, 1, 112, 64)   36928       concatenate_3[0][0]              
INFO:root:__________________________________________________________________________________________________
INFO:root:batch_normalization_18 (BatchNo (None, 1, 112, 64)   256         conv2d_18[0][0]                  
INFO:root:__________________________________________________________________________________________________
INFO:root:activation_18 (Activation)      (None, 1, 112, 64)   0           batch_normalization_18[0][0]     
INFO:root:__________________________________________________________________________________________________
INFO:root:conv2d_19 (Conv2D)              (None, 1, 112, 64)   12352       activation_18[0][0]              
INFO:root:__________________________________________________________________________________________________
INFO:root:batch_normalization_19 (BatchNo (None, 1, 112, 64)   256         conv2d_19[0][0]                  
INFO:root:__________________________________________________________________________________________________
INFO:root:activation_19 (Activation)      (None, 1, 112, 64)   0           batch_normalization_19[0][0]     
INFO:root:__________________________________________________________________________________________________
INFO:root:up_sampling2d_4 (UpSampling2D)  (None, 1, 224, 64)   0           activation_19[0][0]              
INFO:root:__________________________________________________________________________________________________
INFO:root:concatenate_4 (Concatenate)     (None, 1, 224, 96)   0           up_sampling2d_4[0][0]            
INFO:root:                                                                 activation_1[0][0]               
INFO:root:__________________________________________________________________________________________________
INFO:root:conv2d_20 (Conv2D)              (None, 1, 224, 32)   9248        concatenate_4[0][0]              
INFO:root:__________________________________________________________________________________________________
INFO:root:batch_normalization_20 (BatchNo (None, 1, 224, 32)   128         conv2d_20[0][0]                  
INFO:root:__________________________________________________________________________________________________
INFO:root:activation_20 (Activation)      (None, 1, 224, 32)   0           batch_normalization_20[0][0]     
INFO:root:__________________________________________________________________________________________________
INFO:root:conv2d_21 (Conv2D)              (None, 1, 224, 32)   3104        activation_20[0][0]              
INFO:root:__________________________________________________________________________________________________
INFO:root:batch_normalization_21 (BatchNo (None, 1, 224, 32)   128         conv2d_21[0][0]                  
INFO:root:__________________________________________________________________________________________________
INFO:root:activation_21 (Activation)      (None, 1, 224, 32)   0           batch_normalization_21[0][0]     
INFO:root:__________________________________________________________________________________________________
INFO:root:spatial_dropout2d (SpatialDropo (None, 1, 224, 32)   0           activation_21[0][0]              
INFO:root:__________________________________________________________________________________________________
INFO:root:conv2d_22 (Conv2D)              (None, 1, 224, 2)    66          spatial_dropout2d[0][0]          
INFO:root:__________________________________________________________________________________________________
INFO:root:activation_22 (Activation)      (None, 1, 224, 2)    0           conv2d_22[0][0]                  
INFO:root:==================================================================================================
INFO:root:Total params: 10,508,930
INFO:root:Trainable params: 10,496,898
INFO:root:Non-trainable params: 12,032
INFO:root:__________________________________________________________________________________________________
INFO:root:tmodel performance per fold and showing results:
…
