…
INFO:root:Model: "model"
INFO:root:__________________________________________________________________________________________________
INFO:root:Layer (type)                    Output Shape         Param #     Connected to                     
INFO:root:==================================================================================================
INFO:root:input_1 (InputLayer)            [(None, 200, 2)]     0                                            
INFO:root:__________________________________________________________________________________________________
INFO:root:max_pooling1d (MaxPooling1D)    (None, 200, 2)       0           input_1[0][0]                    
INFO:root:__________________________________________________________________________________________________
INFO:root:conv1d (Conv1D)                 (None, 200, 32)      2624        input_1[0][0]                    
INFO:root:__________________________________________________________________________________________________
INFO:root:conv1d_1 (Conv1D)               (None, 200, 32)      1280        input_1[0][0]                    
INFO:root:__________________________________________________________________________________________________
INFO:root:conv1d_2 (Conv1D)               (None, 200, 32)      640         input_1[0][0]                    
INFO:root:__________________________________________________________________________________________________
INFO:root:conv1d_3 (Conv1D)               (None, 200, 32)      64          max_pooling1d[0][0]              
INFO:root:__________________________________________________________________________________________________
INFO:root:concatenate (Concatenate)       (None, 200, 128)     0           conv1d[0][0]                     
INFO:root:                                                                 conv1d_1[0][0]                   
INFO:root:                                                                 conv1d_2[0][0]                   
INFO:root:                                                                 conv1d_3[0][0]                   
INFO:root:__________________________________________________________________________________________________
INFO:root:batch_normalization (BatchNorma (None, 200, 128)     512         concatenate[0][0]                
INFO:root:__________________________________________________________________________________________________
INFO:root:activation (Activation)         (None, 200, 128)     0           batch_normalization[0][0]        
INFO:root:__________________________________________________________________________________________________
INFO:root:max_pooling1d_1 (MaxPooling1D)  (None, 200, 128)     0           activation[0][0]                 
INFO:root:__________________________________________________________________________________________________
INFO:root:conv1d_4 (Conv1D)               (None, 200, 32)      167936      activation[0][0]                 
INFO:root:__________________________________________________________________________________________________
INFO:root:conv1d_5 (Conv1D)               (None, 200, 32)      81920       activation[0][0]                 
INFO:root:__________________________________________________________________________________________________
INFO:root:conv1d_6 (Conv1D)               (None, 200, 32)      40960       activation[0][0]                 
INFO:root:__________________________________________________________________________________________________
INFO:root:conv1d_7 (Conv1D)               (None, 200, 32)      4096        max_pooling1d_1[0][0]            
INFO:root:__________________________________________________________________________________________________
INFO:root:concatenate_1 (Concatenate)     (None, 200, 128)     0           conv1d_4[0][0]                   
INFO:root:                                                                 conv1d_5[0][0]                   
INFO:root:                                                                 conv1d_6[0][0]                   
INFO:root:                                                                 conv1d_7[0][0]                   
INFO:root:__________________________________________________________________________________________________
INFO:root:batch_normalization_1 (BatchNor (None, 200, 128)     512         concatenate_1[0][0]              
INFO:root:__________________________________________________________________________________________________
INFO:root:activation_1 (Activation)       (None, 200, 128)     0           batch_normalization_1[0][0]      
INFO:root:__________________________________________________________________________________________________
INFO:root:max_pooling1d_2 (MaxPooling1D)  (None, 200, 128)     0           activation_1[0][0]               
INFO:root:__________________________________________________________________________________________________
INFO:root:conv1d_8 (Conv1D)               (None, 200, 32)      167936      activation_1[0][0]               
INFO:root:__________________________________________________________________________________________________
INFO:root:conv1d_9 (Conv1D)               (None, 200, 32)      81920       activation_1[0][0]               
INFO:root:__________________________________________________________________________________________________
INFO:root:conv1d_10 (Conv1D)              (None, 200, 32)      40960       activation_1[0][0]               
INFO:root:__________________________________________________________________________________________________
INFO:root:conv1d_11 (Conv1D)              (None, 200, 32)      4096        max_pooling1d_2[0][0]            
INFO:root:__________________________________________________________________________________________________
INFO:root:concatenate_2 (Concatenate)     (None, 200, 128)     0           conv1d_8[0][0]                   
INFO:root:                                                                 conv1d_9[0][0]                   
INFO:root:                                                                 conv1d_10[0][0]                  
INFO:root:                                                                 conv1d_11[0][0]                  
INFO:root:__________________________________________________________________________________________________
INFO:root:conv1d_12 (Conv1D)              (None, 200, 128)     256         input_1[0][0]                    
INFO:root:__________________________________________________________________________________________________
INFO:root:batch_normalization_2 (BatchNor (None, 200, 128)     512         concatenate_2[0][0]              
INFO:root:__________________________________________________________________________________________________
INFO:root:batch_normalization_3 (BatchNor (None, 200, 128)     512         conv1d_12[0][0]                  
INFO:root:__________________________________________________________________________________________________
INFO:root:activation_2 (Activation)       (None, 200, 128)     0           batch_normalization_2[0][0]      
INFO:root:__________________________________________________________________________________________________
INFO:root:add (Add)                       (None, 200, 128)     0           batch_normalization_3[0][0]      
INFO:root:                                                                 activation_2[0][0]               
INFO:root:__________________________________________________________________________________________________
INFO:root:activation_3 (Activation)       (None, 200, 128)     0           add[0][0]                        
INFO:root:__________________________________________________________________________________________________
INFO:root:max_pooling1d_3 (MaxPooling1D)  (None, 200, 128)     0           activation_3[0][0]               
INFO:root:__________________________________________________________________________________________________
INFO:root:conv1d_13 (Conv1D)              (None, 200, 32)      167936      activation_3[0][0]               
INFO:root:__________________________________________________________________________________________________
INFO:root:conv1d_14 (Conv1D)              (None, 200, 32)      81920       activation_3[0][0]               
INFO:root:__________________________________________________________________________________________________
INFO:root:conv1d_15 (Conv1D)              (None, 200, 32)      40960       activation_3[0][0]               
INFO:root:__________________________________________________________________________________________________
INFO:root:conv1d_16 (Conv1D)              (None, 200, 32)      4096        max_pooling1d_3[0][0]            
INFO:root:__________________________________________________________________________________________________
INFO:root:concatenate_3 (Concatenate)     (None, 200, 128)     0           conv1d_13[0][0]                  
INFO:root:                                                                 conv1d_14[0][0]                  
INFO:root:                                                                 conv1d_15[0][0]                  
INFO:root:                                                                 conv1d_16[0][0]                  
INFO:root:__________________________________________________________________________________________________
INFO:root:batch_normalization_4 (BatchNor (None, 200, 128)     512         concatenate_3[0][0]              
INFO:root:__________________________________________________________________________________________________
INFO:root:activation_4 (Activation)       (None, 200, 128)     0           batch_normalization_4[0][0]      
INFO:root:__________________________________________________________________________________________________
INFO:root:max_pooling1d_4 (MaxPooling1D)  (None, 200, 128)     0           activation_4[0][0]               
INFO:root:__________________________________________________________________________________________________
INFO:root:conv1d_17 (Conv1D)              (None, 200, 32)      167936      activation_4[0][0]               
INFO:root:__________________________________________________________________________________________________
INFO:root:conv1d_18 (Conv1D)              (None, 200, 32)      81920       activation_4[0][0]               
INFO:root:__________________________________________________________________________________________________
INFO:root:conv1d_19 (Conv1D)              (None, 200, 32)      40960       activation_4[0][0]               
INFO:root:__________________________________________________________________________________________________
INFO:root:conv1d_20 (Conv1D)              (None, 200, 32)      4096        max_pooling1d_4[0][0]            
INFO:root:__________________________________________________________________________________________________
INFO:root:concatenate_4 (Concatenate)     (None, 200, 128)     0           conv1d_17[0][0]                  
INFO:root:                                                                 conv1d_18[0][0]                  
INFO:root:                                                                 conv1d_19[0][0]                  
INFO:root:                                                                 conv1d_20[0][0]                  
INFO:root:__________________________________________________________________________________________________
INFO:root:batch_normalization_5 (BatchNor (None, 200, 128)     512         concatenate_4[0][0]              
INFO:root:__________________________________________________________________________________________________
INFO:root:activation_5 (Activation)       (None, 200, 128)     0           batch_normalization_5[0][0]      
INFO:root:__________________________________________________________________________________________________
INFO:root:max_pooling1d_5 (MaxPooling1D)  (None, 200, 128)     0           activation_5[0][0]               
INFO:root:__________________________________________________________________________________________________
INFO:root:conv1d_21 (Conv1D)              (None, 200, 32)      167936      activation_5[0][0]               
INFO:root:__________________________________________________________________________________________________
INFO:root:conv1d_22 (Conv1D)              (None, 200, 32)      81920       activation_5[0][0]               
INFO:root:__________________________________________________________________________________________________
INFO:root:conv1d_23 (Conv1D)              (None, 200, 32)      40960       activation_5[0][0]               
INFO:root:__________________________________________________________________________________________________
INFO:root:conv1d_24 (Conv1D)              (None, 200, 32)      4096        max_pooling1d_5[0][0]            
INFO:root:__________________________________________________________________________________________________
INFO:root:concatenate_5 (Concatenate)     (None, 200, 128)     0           conv1d_21[0][0]                  
INFO:root:                                                                 conv1d_22[0][0]                  
INFO:root:                                                                 conv1d_23[0][0]                  
INFO:root:                                                                 conv1d_24[0][0]                  
INFO:root:__________________________________________________________________________________________________
INFO:root:conv1d_25 (Conv1D)              (None, 200, 128)     16384       activation_3[0][0]               
INFO:root:__________________________________________________________________________________________________
INFO:root:batch_normalization_6 (BatchNor (None, 200, 128)     512         concatenate_5[0][0]              
INFO:root:__________________________________________________________________________________________________
INFO:root:batch_normalization_7 (BatchNor (None, 200, 128)     512         conv1d_25[0][0]                  
INFO:root:__________________________________________________________________________________________________
INFO:root:activation_6 (Activation)       (None, 200, 128)     0           batch_normalization_6[0][0]      
INFO:root:__________________________________________________________________________________________________
INFO:root:add_1 (Add)                     (None, 200, 128)     0           batch_normalization_7[0][0]      
INFO:root:                                                                 activation_6[0][0]               
INFO:root:__________________________________________________________________________________________________
INFO:root:activation_7 (Activation)       (None, 200, 128)     0           add_1[0][0]                      
INFO:root:__________________________________________________________________________________________________
INFO:root:global_average_pooling1d (Globa (None, 128)          0           activation_7[0][0]               
INFO:root:__________________________________________________________________________________________________
INFO:root:dense (Dense)                   (None, 2)            258         global_average_pooling1d[0][0]   
INFO:root:==================================================================================================
INFO:root:Total params: 1,500,162
INFO:root:Trainable params: 1,498,114
INFO:root:Non-trainable params: 2,048
INFO:root:__________________________________________________________________________________________________
INFO:root:tmodel performance per fold and showing results:
…
