…
INFO:root:Model: "ZF_UNET_224"
INFO:root:__________________________________________________________________________________________________
INFO:root:Layer (type)                    Output Shape         Param #     Connected to                     
INFO:root:==================================================================================================
INFO:root:input_5 (InputLayer)            [(None, 1, 224, 2)]  0                                            
INFO:root:__________________________________________________________________________________________________
INFO:root:conv2d_92 (Conv2D)              (None, 1, 224, 16)   112         input_5[0][0]                    
INFO:root:__________________________________________________________________________________________________
INFO:root:batch_normalization_88 (BatchNo (None, 1, 224, 16)   64          conv2d_92[0][0]                  
INFO:root:__________________________________________________________________________________________________
INFO:root:activation_92 (Activation)      (None, 1, 224, 16)   0           batch_normalization_88[0][0]     
INFO:root:__________________________________________________________________________________________________
INFO:root:conv2d_93 (Conv2D)              (None, 1, 224, 16)   784         activation_92[0][0]              
INFO:root:__________________________________________________________________________________________________
INFO:root:batch_normalization_89 (BatchNo (None, 1, 224, 16)   64          conv2d_93[0][0]                  
INFO:root:__________________________________________________________________________________________________
INFO:root:activation_93 (Activation)      (None, 1, 224, 16)   0           batch_normalization_89[0][0]     
INFO:root:__________________________________________________________________________________________________
INFO:root:max_pooling2d_20 (MaxPooling2D) (None, 1, 112, 16)   0           activation_93[0][0]              
INFO:root:__________________________________________________________________________________________________
INFO:root:conv2d_94 (Conv2D)              (None, 1, 112, 32)   1568        max_pooling2d_20[0][0]           
INFO:root:__________________________________________________________________________________________________
INFO:root:batch_normalization_90 (BatchNo (None, 1, 112, 32)   128         conv2d_94[0][0]                  
INFO:root:__________________________________________________________________________________________________
INFO:root:activation_94 (Activation)      (None, 1, 112, 32)   0           batch_normalization_90[0][0]     
INFO:root:__________________________________________________________________________________________________
INFO:root:conv2d_95 (Conv2D)              (None, 1, 112, 32)   3104        activation_94[0][0]              
INFO:root:__________________________________________________________________________________________________
INFO:root:batch_normalization_91 (BatchNo (None, 1, 112, 32)   128         conv2d_95[0][0]                  
INFO:root:__________________________________________________________________________________________________
INFO:root:activation_95 (Activation)      (None, 1, 112, 32)   0           batch_normalization_91[0][0]     
INFO:root:__________________________________________________________________________________________________
INFO:root:max_pooling2d_21 (MaxPooling2D) (None, 1, 56, 32)    0           activation_95[0][0]              
INFO:root:__________________________________________________________________________________________________
INFO:root:conv2d_96 (Conv2D)              (None, 1, 56, 64)    6208        max_pooling2d_21[0][0]           
INFO:root:__________________________________________________________________________________________________
INFO:root:batch_normalization_92 (BatchNo (None, 1, 56, 64)    256         conv2d_96[0][0]                  
INFO:root:__________________________________________________________________________________________________
INFO:root:activation_96 (Activation)      (None, 1, 56, 64)    0           batch_normalization_92[0][0]     
INFO:root:__________________________________________________________________________________________________
INFO:root:conv2d_97 (Conv2D)              (None, 1, 56, 64)    12352       activation_96[0][0]              
INFO:root:__________________________________________________________________________________________________
INFO:root:batch_normalization_93 (BatchNo (None, 1, 56, 64)    256         conv2d_97[0][0]                  
INFO:root:__________________________________________________________________________________________________
INFO:root:activation_97 (Activation)      (None, 1, 56, 64)    0           batch_normalization_93[0][0]     
INFO:root:__________________________________________________________________________________________________
INFO:root:max_pooling2d_22 (MaxPooling2D) (None, 1, 28, 64)    0           activation_97[0][0]              
INFO:root:__________________________________________________________________________________________________
INFO:root:conv2d_98 (Conv2D)              (None, 1, 28, 128)   24704       max_pooling2d_22[0][0]           
INFO:root:__________________________________________________________________________________________________
INFO:root:batch_normalization_94 (BatchNo (None, 1, 28, 128)   512         conv2d_98[0][0]                  
INFO:root:__________________________________________________________________________________________________
INFO:root:activation_98 (Activation)      (None, 1, 28, 128)   0           batch_normalization_94[0][0]     
INFO:root:__________________________________________________________________________________________________
INFO:root:conv2d_99 (Conv2D)              (None, 1, 28, 128)   49280       activation_98[0][0]              
INFO:root:__________________________________________________________________________________________________
INFO:root:batch_normalization_95 (BatchNo (None, 1, 28, 128)   512         conv2d_99[0][0]                  
INFO:root:__________________________________________________________________________________________________
INFO:root:activation_99 (Activation)      (None, 1, 28, 128)   0           batch_normalization_95[0][0]     
INFO:root:__________________________________________________________________________________________________
INFO:root:max_pooling2d_23 (MaxPooling2D) (None, 1, 14, 128)   0           activation_99[0][0]              
INFO:root:__________________________________________________________________________________________________
INFO:root:conv2d_100 (Conv2D)             (None, 1, 14, 256)   98560       max_pooling2d_23[0][0]           
INFO:root:__________________________________________________________________________________________________
INFO:root:batch_normalization_96 (BatchNo (None, 1, 14, 256)   1024        conv2d_100[0][0]                 
INFO:root:__________________________________________________________________________________________________
INFO:root:activation_100 (Activation)     (None, 1, 14, 256)   0           batch_normalization_96[0][0]     
INFO:root:__________________________________________________________________________________________________
INFO:root:conv2d_101 (Conv2D)             (None, 1, 14, 256)   196864      activation_100[0][0]             
INFO:root:__________________________________________________________________________________________________
INFO:root:batch_normalization_97 (BatchNo (None, 1, 14, 256)   1024        conv2d_101[0][0]                 
INFO:root:__________________________________________________________________________________________________
INFO:root:activation_101 (Activation)     (None, 1, 14, 256)   0           batch_normalization_97[0][0]     
INFO:root:__________________________________________________________________________________________________
INFO:root:max_pooling2d_24 (MaxPooling2D) (None, 1, 7, 256)    0           activation_101[0][0]             
INFO:root:__________________________________________________________________________________________________
INFO:root:conv2d_102 (Conv2D)             (None, 1, 7, 512)    393728      max_pooling2d_24[0][0]           
INFO:root:__________________________________________________________________________________________________
INFO:root:batch_normalization_98 (BatchNo (None, 1, 7, 512)    2048        conv2d_102[0][0]                 
INFO:root:__________________________________________________________________________________________________
INFO:root:activation_102 (Activation)     (None, 1, 7, 512)    0           batch_normalization_98[0][0]     
INFO:root:__________________________________________________________________________________________________
INFO:root:conv2d_103 (Conv2D)             (None, 1, 7, 512)    786944      activation_102[0][0]             
INFO:root:__________________________________________________________________________________________________
INFO:root:batch_normalization_99 (BatchNo (None, 1, 7, 512)    2048        conv2d_103[0][0]                 
INFO:root:__________________________________________________________________________________________________
INFO:root:activation_103 (Activation)     (None, 1, 7, 512)    0           batch_normalization_99[0][0]     
INFO:root:__________________________________________________________________________________________________
INFO:root:up_sampling2d_20 (UpSampling2D) (None, 1, 14, 512)   0           activation_103[0][0]             
INFO:root:__________________________________________________________________________________________________
INFO:root:concatenate_20 (Concatenate)    (None, 1, 14, 768)   0           up_sampling2d_20[0][0]           
INFO:root:                                                                 activation_101[0][0]             
INFO:root:__________________________________________________________________________________________________
INFO:root:conv2d_104 (Conv2D)             (None, 1, 14, 256)   590080      concatenate_20[0][0]             
INFO:root:__________________________________________________________________________________________________
INFO:root:batch_normalization_100 (BatchN (None, 1, 14, 256)   1024        conv2d_104[0][0]                 
INFO:root:__________________________________________________________________________________________________
INFO:root:activation_104 (Activation)     (None, 1, 14, 256)   0           batch_normalization_100[0][0]    
INFO:root:__________________________________________________________________________________________________
INFO:root:conv2d_105 (Conv2D)             (None, 1, 14, 256)   196864      activation_104[0][0]             
INFO:root:__________________________________________________________________________________________________
INFO:root:batch_normalization_101 (BatchN (None, 1, 14, 256)   1024        conv2d_105[0][0]                 
INFO:root:__________________________________________________________________________________________________
INFO:root:activation_105 (Activation)     (None, 1, 14, 256)   0           batch_normalization_101[0][0]    
INFO:root:__________________________________________________________________________________________________
INFO:root:up_sampling2d_21 (UpSampling2D) (None, 1, 28, 256)   0           activation_105[0][0]             
INFO:root:__________________________________________________________________________________________________
INFO:root:concatenate_21 (Concatenate)    (None, 1, 28, 384)   0           up_sampling2d_21[0][0]           
INFO:root:                                                                 activation_99[0][0]              
INFO:root:__________________________________________________________________________________________________
INFO:root:conv2d_106 (Conv2D)             (None, 1, 28, 128)   147584      concatenate_21[0][0]             
INFO:root:__________________________________________________________________________________________________
INFO:root:batch_normalization_102 (BatchN (None, 1, 28, 128)   512         conv2d_106[0][0]                 
INFO:root:__________________________________________________________________________________________________
INFO:root:activation_106 (Activation)     (None, 1, 28, 128)   0           batch_normalization_102[0][0]    
INFO:root:__________________________________________________________________________________________________
INFO:root:conv2d_107 (Conv2D)             (None, 1, 28, 128)   49280       activation_106[0][0]             
INFO:root:__________________________________________________________________________________________________
INFO:root:batch_normalization_103 (BatchN (None, 1, 28, 128)   512         conv2d_107[0][0]                 
INFO:root:__________________________________________________________________________________________________
INFO:root:activation_107 (Activation)     (None, 1, 28, 128)   0           batch_normalization_103[0][0]    
INFO:root:__________________________________________________________________________________________________
INFO:root:up_sampling2d_22 (UpSampling2D) (None, 1, 56, 128)   0           activation_107[0][0]             
INFO:root:__________________________________________________________________________________________________
INFO:root:concatenate_22 (Concatenate)    (None, 1, 56, 192)   0           up_sampling2d_22[0][0]           
INFO:root:                                                                 activation_97[0][0]              
INFO:root:__________________________________________________________________________________________________
INFO:root:conv2d_108 (Conv2D)             (None, 1, 56, 64)    36928       concatenate_22[0][0]             
INFO:root:__________________________________________________________________________________________________
INFO:root:batch_normalization_104 (BatchN (None, 1, 56, 64)    256         conv2d_108[0][0]                 
INFO:root:__________________________________________________________________________________________________
INFO:root:activation_108 (Activation)     (None, 1, 56, 64)    0           batch_normalization_104[0][0]    
INFO:root:__________________________________________________________________________________________________
INFO:root:conv2d_109 (Conv2D)             (None, 1, 56, 64)    12352       activation_108[0][0]             
INFO:root:__________________________________________________________________________________________________
INFO:root:batch_normalization_105 (BatchN (None, 1, 56, 64)    256         conv2d_109[0][0]                 
INFO:root:__________________________________________________________________________________________________
INFO:root:activation_109 (Activation)     (None, 1, 56, 64)    0           batch_normalization_105[0][0]    
INFO:root:__________________________________________________________________________________________________
INFO:root:up_sampling2d_23 (UpSampling2D) (None, 1, 112, 64)   0           activation_109[0][0]             
INFO:root:__________________________________________________________________________________________________
INFO:root:concatenate_23 (Concatenate)    (None, 1, 112, 96)   0           up_sampling2d_23[0][0]           
INFO:root:                                                                 activation_95[0][0]              
INFO:root:__________________________________________________________________________________________________
INFO:root:conv2d_110 (Conv2D)             (None, 1, 112, 32)   9248        concatenate_23[0][0]             
INFO:root:__________________________________________________________________________________________________
INFO:root:batch_normalization_106 (BatchN (None, 1, 112, 32)   128         conv2d_110[0][0]                 
INFO:root:__________________________________________________________________________________________________
INFO:root:activation_110 (Activation)     (None, 1, 112, 32)   0           batch_normalization_106[0][0]    
INFO:root:__________________________________________________________________________________________________
INFO:root:conv2d_111 (Conv2D)             (None, 1, 112, 32)   3104        activation_110[0][0]             
INFO:root:__________________________________________________________________________________________________
INFO:root:batch_normalization_107 (BatchN (None, 1, 112, 32)   128         conv2d_111[0][0]                 
INFO:root:__________________________________________________________________________________________________
INFO:root:activation_111 (Activation)     (None, 1, 112, 32)   0           batch_normalization_107[0][0]    
INFO:root:__________________________________________________________________________________________________
INFO:root:up_sampling2d_24 (UpSampling2D) (None, 1, 224, 32)   0           activation_111[0][0]             
INFO:root:__________________________________________________________________________________________________
INFO:root:concatenate_24 (Concatenate)    (None, 1, 224, 48)   0           up_sampling2d_24[0][0]           
INFO:root:                                                                 activation_93[0][0]              
INFO:root:__________________________________________________________________________________________________
INFO:root:conv2d_112 (Conv2D)             (None, 1, 224, 16)   2320        concatenate_24[0][0]             
INFO:root:__________________________________________________________________________________________________
INFO:root:batch_normalization_108 (BatchN (None, 1, 224, 16)   64          conv2d_112[0][0]                 
INFO:root:__________________________________________________________________________________________________
INFO:root:activation_112 (Activation)     (None, 1, 224, 16)   0           batch_normalization_108[0][0]    
INFO:root:__________________________________________________________________________________________________
INFO:root:conv2d_113 (Conv2D)             (None, 1, 224, 16)   784         activation_112[0][0]             
INFO:root:__________________________________________________________________________________________________
INFO:root:batch_normalization_109 (BatchN (None, 1, 224, 16)   64          conv2d_113[0][0]                 
INFO:root:__________________________________________________________________________________________________
INFO:root:activation_113 (Activation)     (None, 1, 224, 16)   0           batch_normalization_109[0][0]    
INFO:root:__________________________________________________________________________________________________
INFO:root:spatial_dropout2d_4 (SpatialDro (None, 1, 224, 16)   0           activation_113[0][0]             
INFO:root:__________________________________________________________________________________________________
INFO:root:conv2d_114 (Conv2D)             (None, 1, 224, 2)    34          spatial_dropout2d_4[0][0]        
INFO:root:__________________________________________________________________________________________________
INFO:root:activation_114 (Activation)     (None, 1, 224, 2)    0           conv2d_114[0][0]                 
INFO:root:==================================================================================================
INFO:root:Total params: 2,634,818
INFO:root:Trainable params: 2,628,802
INFO:root:Non-trainable params: 6,016
INFO:root:__________________________________________________________________________________________________
INFO:root:classification report:              precision    recall  f1-score   support
…
